…
;</span>: 0, <span class="string">&#x27;ema_seed_model&#x27;</span>: None, <span class="string">&#x27;ema_update_freq&#x27;</span>: 1, <span class="string">&#x27;ema_fp32&#x27;</span>: False&#125;&#125;</span><br><span class="line">2023-02-21 21:04:52 | INFO | fairseq.tasks.language_modeling | dictionary: 267744 types</span><br><span class="line">2023-02-21 21:04:55 | INFO | fairseq_cli.train | TransformerLanguageModel(</span><br><span class="line">  (decoder): TransformerDecoder(</span><br><span class="line">    (dropout_module): FairseqDropout()</span><br><span class="line">    (embed_tokens): Embedding(267744, 512, padding_idx=1)</span><br><span class="line">    (embed_positions): SinusoidalPositionalEmbedding()</span><br><span class="line">    (layers): ModuleList(</span><br><span class="line">      (0): TransformerDecoderLayerBase(</span><br><span class="line">        (dropout_module): FairseqDropout()</span><br><span class="line">        (self_attn): MultiheadAttention(</span><br><span class="line">          (dropout_module): FairseqDropout()</span><br><span class="line">          (k_proj): Linear(in_features=512, out_features=512, bias=True)</span><br><span class="line">          (v_proj): Linear(in_features=512, out_features=512, bias=True)</span><br><span class="line">          (q_proj): Linear(in_features=512, out_features=512, bias=True)</span><br><span class="line">          (out_proj): Linear(in_features=512, out_features=512, bias=True)</span><br><span class="line">        )</span><br><span class="line">        (activation_dropout_module): FairseqDropout()</span><br><span class="line">        (self_attn_layer_norm): LayerNorm((512,), eps=1e-05, elementwise_affine=True)</span><br><span class="line">        (fc1): Linear(in_features=512, out_features=2048, bias=True)</span><br><span class="line">        (fc2): Linear(in_features=2048, out_features=512, bias=True)</span><br><span class="line">        (final_layer_norm): LayerNorm((512,), eps=1e-05, elementwise_affine=True)</span><br><span class="line">      )</span><br><span class="line">      (1): TransformerDecoderLayerBase(</span><br><span class="line">        (dropout_module): FairseqDropout()</span><br><span class="line">        (self_attn): MultiheadAttention(</span><br><span class="line">          (dropout_module): FairseqDropout()</span><br><span class="line">          (k_proj): Linear(in_features=512, out_features=512, bias=True)</span><br><span class="line">          (v_proj): Linear(in_features=512, out_features=512, bias=True)</span><br><span class="line">          (q_proj): Linear(in_features=512, out_features=512, bias=True)</span><br><span class="line">          (out_proj): Linear(in_features=512, out_features=512, bias=True)</span><br><span class="line">        )</span><br><span class="line">        (activation_dropout_module): FairseqDropout()</span><br><span class="line">        (self_attn_layer_norm): LayerNorm((512,), eps=1e-05, elementwise_affine=True)</span><br><span class="line">        (fc1): Linear(in_features=512, out_features=2048, bias=True)</span><br><span class="line">        (fc2): Linear(in_features=2048, out_features=512, bias=True)</span><br><span class="line">        (final_layer_norm): LayerNorm((512,), eps=1e-05, elementwise_affine=True)</span><br><span class="line">      )</span><br><span class="line">      (2): TransformerDecoderLayerBase(</span><br><span class="line">        (dropout_module): FairseqDropout()</span><br><span class="line">        (self_attn): MultiheadAttention(</span><br><span class="line">          (dropout_module): FairseqDropout()</span><br><span class="line">          (k_proj): Linear(in_features=512, out_features=512, bias=True)</span><br><span class="line">          (v_proj): Linear(in_features=512, out_features=512, bias=True)</span><br><span class="line">          (q_proj): Linear(in_features=512, out_features=512, bias=True)</span><br><span class="line">          (out_proj): Linear(in_features=512, out_features=512, bias=True)</span><br><span class="line">        )</span><br><span class="line">        (activation_dropout_module): FairseqDropout()</span><br><span class="line">        (self_attn_layer_norm): LayerNorm((512,), eps=1e-05, elementwise_affine=True)</span><br><span class="line">        (fc1): Linear(in_features=512, out_features=2048, bias=True)</span><br><span class="line">        (fc2): Linear(in_features=2048, out_features=512, bias=True)</span><br><span class="line">        (final_layer_norm): LayerNorm((512,), eps=1e-05, elementwise_affine=True)</span><br><span class="line">      )</span><br><span class="line">      (3): TransformerDecoderLayerBase(</span><br><span class="line">        (dropout_module): FairseqDropout()</span><br><span class="line">        (self_attn): MultiheadAttention(</span><br><span class="line">          (dropout_module): FairseqDropout()</span><br><span class="line">          (k_proj): Linear(in_features=512, out_features=512, bias=True)</span><br><span class="line">          (v_proj): Linear(in_features=512, out_features=512, bias=True)</span><br><span class="line">          (q_proj): Linear(in_features=512, out_features=512, bias=True)</span><br><span class="line">          (out_proj): Linear(in_features=512, out_features=512, bias=True)</span><br><span class="line">        )</span><br><span class="line">        (activation_dropout_module): FairseqDropout()</span><br><span class="line">        (self_attn_layer_norm): LayerNorm((512,), eps=1e-05, elementwise_affine=True)</span><br><span class="line">        (fc1): Linear(in_features=512, out_features=2048, bias=True)</span><br><span class="line">        (fc2): Linear(in_features=2048, out_features=512, bias=True)</span><br><span class="line">        (final_layer_norm): LayerNorm((512,), eps=1e-05, elementwise_affine=True)</span><br><span class="line">      )</span><br><span class="line">      (4): TransformerDecoderLayerBase(</span><br><span class="line">        (dropout_module): FairseqDropout()</span><br><span class="line">        (self_attn): MultiheadAttention(</span><br><span class="line">          (dropout_module): FairseqDropout()</span><br><span class="line">          (k_proj): Linear(in_features=512, out_features=512, bias=True)</span><br><span class="line">          (v_proj): Linear(in_features=512, out_features=512, bias=True)</span><br><span class="line">          (q_proj): Linear(in_features=512, out_features=512, bias=True)</span><br><span class="line">          (out_proj): Linear(in_features=512, out_features=512, bias=True)</span><br><span class="line">        )</span><br><span class="line">        (activation_dropout_module): FairseqDropout()</span><br><span class="line">        (self_attn_layer_norm): LayerNorm((512,), eps=1e-05, elementwise_affine=True)</span><br><span class="line">        (fc1): Linear(in_features=512, out_features=2048, bias=True)</span><br><span class="line">        (fc2): Linear(in_features=2048, out_features=512, bias=True)</span><br><span class="line">        (final_layer_norm): LayerNorm((512,), eps=1e-05, elementwise_affine=True)</span><br><span class="line">      )</span><br><span class="line">      (5): TransformerDecoderLayerBase(</span><br><span class="line">        (dropout_module): FairseqDropout()</span><br><span class="line">        (self_attn): MultiheadAttention(</span><br><span class="line">          (dropout_module): FairseqDropout()</span><br><span class="line">          (k_proj): Linear(in_features=512, out_features=512, bias=True)</span><br><span class="line">          (v_proj): Linear(in_features=512, out_features=512, bias=True)</span><br><span class="line">          (q_proj): Linear(in_features=512, out_features=512, bias=True)</span><br><span class="line">          (out_proj): Linear(in_features=512, out_features=512, bias=True)</span><br><span class="line">        )</span><br><span class="line">        (activation_dropout_module): FairseqDropout()</span><br><span class="line">        (self_attn_layer_norm): LayerNorm((512,), eps=1e-05, elementwise_affine=True)</span><br><span class="line">        (fc1): Linear(in_features=512, out_features=2048, bias=True)</span><br><span class="line">        (fc2): Linear(in_features=2048, out_features=512, bias=True)</span><br><span class="line">        (final_layer_norm): LayerNorm((512,), eps=1e-05, elementwise_affine=True)</span><br><span class="line">      )</span><br><span class="line">    )</span><br><span class="line">    (output_projection): Linear(in_features=512, out_features=267744, bias=False)</span><br><span class="line">  )</span><br><span class="line">)</span><br><span class="line">2023-02-21 21:04:55 | INFO | fairseq_cli.train | task: LanguageModelingTask</span><br><span class="line">2023-02-21 21:04:55 | INFO | fairseq_cli.train | model: TransformerLanguageModel</span><br><span class="line">2023-02-21 21:04:55 | INFO | fairseq_cli.t
…
